NeuralTraining/keypoint_classifier.tflite (tflite, 6748 bytes, 6 tensors)

sequential_1/dense_5/BiasAdd/ReadVariableOp f4 [8]
00000000: 688c 623e 7a42 7d3e e83b 26bf 28b3 343e
00000010: 0aaf 38bd 926b 22bf eed0 1ebe 1da6 023f
0.22123873 0.2473239 -0.6493516 0.17646468 -0.045088805 -0.6344539 -0.15509388 0.5103472

sequential_1/dense_4/BiasAdd/ReadVariableOp f4 [10]
00000000: 7b4c 7b3d 1f16 1a3f c74d 423d c007 e63d
00000010: d1a3 113e 0112 653f 8729 7e3f 3e04 093f
00000020: 9543 1cbe 28e4 0cbf
0.061352234 0.60190004 0.047437456 0.11231947 0.14222647 0.89480597 0.99282116 0.535221
-0.15260155 -0.5503564

sequential_1/dense_3/BiasAdd/ReadVariableOp f4 [20]
00000000: c124 00bf a7c9 2ebf f29d c3bb 942e 163f
00000010: 521a ee3d 4564 c9be e70c e23d 2c4e c63d
00000020: 70dc 47bc cbad e93d 78d1 8e3d c956 803d
00000030: b6b0 243f c950 7a3d fdf1 e93c e901 d33e
00000040: 65ac 223f 77a6 c23c 800b 22bf d5d6 3dbe
-0.5005608 -0.6827645 -0.0059697563 0.5866482 0.11626114 -0.39334312 0.11037617 0.09682879
-0.0121985525 0.114101015 0.06973547 0.06266553 0.6433214 0.0611122 0.028557772 0.41212395
0.63544303 0.023761017 -0.632988 -0.18538983

sequential_1/dense_3/MatMul f4 [20, 42]
00000000: 1836 813e 720f 2f3e 54f3 b0bd 2e1d 75bf
00000010: 2560 ffbb a297 43bf 9b56 793d 0b1c 17bf
00000020: 82f6 733e c61c 1dbf cd8b 1dbb dc3c 35be
00000030: 1e37 363c 3545 1c3e 4919 9d3b c18c 773e
00000040: 41d1 cfbd cd3d 5a3d b48f 2c3e 6875 0cbe
00000050: 0bca 9ebd d284 a7bc c566 20be dca6 c93d
00000060: ee3b c6bd 1325 6bbf b279 a13d a174 93bb
00000070: 7090 d5bd d71f 69bb d0c6 2abd 97c0 553d
00000080: 4377 5ebd 9647 913d 1f4e 853e 7bfe 61be
00000090: d115 243e 45b0 cdbd 5563 2cbe 5a6a c9bc
000000a0: 382d 02be 5bd2 babb 0cab 023e 8097 423e
000000b0: b856 44bf cad9 c93e 11b4 16bf 527f 233e
000000c0: 84c8 b8be c4eb 9a3e a045 77be b490 4fbf
000000d0: 6a73 56be c876 dcbd bb30 e6bd aa25 4e3a
000000e0: 8cbd 07be 2cde 403d 3311 6e3e 04a0 e5be
000000f0: 685d a33c e91a 12bd 254b c4bd f259 06be
00000100: a30e 84bc 5955 c3be ab2b 57be 3bbf 493b
00000110: 17fd 193e d44d 54be dc73 493e 9e11 8dbe
00000120: ebc2 613e e40f cabe 275e 1b3e 904a dbbe
00000130: a215 d03e a5f6 36be e42b 4e3e ec0b 98be
00000140: 3700 d43e ae11 87be 1a61 ed3e 1f40 d9be
00000150: e839 3cbd f0ac 433e 0ed9 a83e 6bd9 24bf
00000160: cb7c 3a3e c209 b1bd 8399 6d3e 877e a5bd
00000170: 361d 89bc 93f8 92be 51a3 07be ed50 edbd
00000180: d0cc aa3d c657 3b3e 0eca 073c dc28 9cbd
00000190: 676b 76be a64f 0b3e 4a62 b1be b49d e0bd
000001a0: 3de1 acbe 9bf5 ff3d d6b6 70be c783 4c3e
000001b0: e37d f23d 0802 d4be 4401 65bf 3ca9 743d
000001c0: 3485 1cbf 3e79 063e 6af6 0dbf d05e b23d
000001d0: a86d 89be 0d29 583e 29d3 37bf 58a3 e4bd
000001e0: 0282 6dbf f303 433d d967 33bf 8c7d 233e
000001f0: 7e9b 0bbf 8aba 173e 00c7 d83a 70a9 1ebd
00000200: dd9a 0a3e 0178 abbd a7bb c0bd fe85 1fbe
00000210: cb6b 5b3e 378c 7ebe 41a0 c7be 998b e53e
00000220: 6428 f13e 8dee 33bd c328 733e 468d 273e
00000230: 9433 5dbe 8750 043f edc6 01be 949c fb3e
00000240: 32d9 243f 615e 743e 10e5 5f3e 6b8a 7c3e
00000250: 764e 35bd ff23 2d3e fb71 d5bc 9b83 ad3e
00000260: 70b8 e03e ec7a 813e 630c 123e 0cee 16bd
00000270: ceea f63d bcef 903e 238b 8b3d 358c 8ebe
00000280: bc49 5f3f de3f 1d3c 17a9 da3e 7364 a63d
00000290: 6095 8c3e af4e 403e 3e8c 733e 26bc 81bd
000002a0: 44e2 d83d ae77 b8bd 41c0 2a3f de1b b4bf
000002b0: 18c6 083f f1f0 85bf c4d3 a83e 781a 2fbf
000002c0: 135a a5be 692e b4bd 2432 233e ac72 8dbe
000002d0: bd91 423e 09e2 d93d e3fe 20be b72a 573e
000002e0: b97f b6bd fd63 3abe 7fa3 f43d dc15 31be
000002f0: b573 c93d 870e bf3d 9fe7 9dbc 8d62 843e
00000300: a4d2 7abd fc18 80bd ab8b 31be 3e24 38bc
00000310: d5f8 673c e20d 813d 4e0d 16be 9831 813e
00000320: 9188 02be 0507 813d 4ce5 8cbe f533 ddbb
00000330: 8384 02be 64e6 6d3d 58c1 9fbe 8222 753e
00000340: 5a95 abbe 9ccc e63d e239 8a3e 08f7 60be
00000350: 7a1a f1be 9063 9b3e 4177 d3be 4b78 573d
00000360: 6de8 91be 753e 0abe 85dd 3dbe 7be2 c2be
00000370: 815b cfbe ee4d 7bbd 5871 debd 0ad3 96bd
00000380: 37ca 313d b944 34be a6ff 843e 98d3 47bf
00000390: d6fa 8ebe 2daf 34be 6649 29be c791 21be
000003a0: 835a bd3c 0a53 bdbe 29f5 4ebe 0ef2 633f
000003b0: 05af a13d 0012 2b3d d629 523e b5c9 9f3c
000003c0: ecb8 343e 01f5 b53b bf69 d5ba 9b7c 0abe
000003d0: f908 ff3e ac9f 06be 2f72 e53e 08c3 03bd
000003e0: 0ed3 103f ea82 b3bd 7233 b63e 8aa2 1fbe
000003f0: 32f1 1f3e be27 37be 26e2 a53d 6d09 1ebe
0.25236583 0.17095736 -0.08640161 -0.9574765 -0.0077934437 -0.7640325 0.06087361 -0.59027165
0.23824504 -0.6137203 -0.0024039627 -0.17698997 0.011121539 0.15260775 0.004794274 0.24174787
-0.10147334 0.053281594 0.16851693 -0.13716662 -0.077533804 -0.020449076 -0.15664203 0.09846279
-0.096793994 -0.91853446 0.0788454 -0.0044999872 -0.1042794 -0.0035571957 -0.04169351 0.05218562
-0.054312956 0.07093732 0.26036164 -0.22069733 0.16023947 -0.10043386 -0.16834767 -0.024586845
-0.12712562 -0.005701346 0.12760562 0.19003105 -0.7669482 0.39423972 -0.5886851 0.15966538
-0.3609048 0.30258 -0.24147654 -0.81080174 -0.20942464 -0.10764843 -0.11239763 0.0007863889
-0.132559 0.04708688 0.23248748 -0.44848645 0.019942 -0.035670195 -0.09584645 -0.13120249
-0.01612026 -0.38151053 -0.21012752 0.0030784148 0.15037952 -0.20732814 0.19673103 -0.27552503
0.22047012 -0.3946525 0.15172635 -0.42830324 0.40641505 -0.17867525 0.2013393 -0.29696596
0.41406414 -0.26380676 0.46363145 -0.42431733 -0.04595366 0.19108939 0.329781 -0.64394253
0.18211667 -0.08644439 0.23203091 -0.08080774 -0.016737562 -0.28705272 -0.13245894 -0.11587701
0.08339846 0.18295202 0.00828792 -0.07624981 -0.24064408 0.13604602 -0.346453 -0.109675795
-0.33765593 0.124980174 -0.23507246 0.19972144 0.11840417 -0.414078 -0.89455056 0.059731707
-0.6114075 0.13132188 -0.55454123 0.0870949 -0.26841474 0.2110941 -0.7180658 -0.11163968
-0.927765 0.04761119 -0.70080334 0.15965861 -0.5453414 0.14817253 0.0016538799 -0.038735807
0.13535638 -0.08372498 -0.09410792 -0.15578458 0.21427839 -0.24858175 -0.38989452 0.44833067
0.47101128 -0.04392867 0.23746018 0.16362485 -0.21601707 0.51685375 -0.1267354 0.49142897
0.64393914 0.23864128 0.21864724 0.24662177 -0.04426428 0.16908263 -0.026055327 0.3388947
0.43890715 0.25289094 0.14262538 -0.036848113 0.12056504 0.28307903 0.068136476 -0.27841344
0.87221885 0.009597747 0.4270713 0.08124628 0.27457714 0.18780015 0.23783967 -0.063347146
0.10590032 -0.09007202 0.66699606 -1.4071004 0.5342727 -1.0464154 0.32974064 -0.68399763
-0.32295284 -0.087979145 0.15937096 -0.2762655 0.19000907 0.10638816 -0.15722232 0.21012388
-0.0891108 -0.18202205 0.11945247 -0.17293495 0.098365225 0.09328943 -0.019275485 0.25856438
-0.06123604 -0.062547654 -0.17338435 -0.01123911 0.014158447 0.06301476 -0.14653513 0.2523315
-0.12747408 0.06300167 -0.2751869 -0.0067505785 -0.12745862 0.058081046 -0.31202197 0.23938945
-0.33512384 0.11269495 0.26997286 -0.21969235 -0.47090513 0.30349398 -0.4130192 0.052604955
-0.2849764 -0.13500388 -0.18541534 -0.38063416 -0.404995 -0.061353616 -0.10861462 -0.07364471
0.043405738 -0.1760434 0.25976294 -0.7805724 -0.27925748 -0.1764495 -0.16531906 -0.15778266
0.023114448 -0.36977416 -0.20210709 0.8904122 0.078947105 0.041765213 0.20523772 0.019505361
0.17648667 0.0055528884 -0.0016282125 -0.13524096 0.49811533 -0.13146847 0.44813678 -0.03216842
0.56572044 -0.08765204 0.35586125 -0.15589347 0.15619352 -0.17886254 0.08099775 -0.15433283

sequential_1/dense_4/MatMul f4 [10, 20]
00000000: bfbd babd 2a53 923c 625d d83e 0a90 aebe
00000010: 4eb9 c13b 5020 053e acbc 803f 4863 273f
00000020: bac7 d13d 5077 c53e 5342 4a3f 0b5d 77be
00000030: 7d53 293e 9498 8a3f 0402 5a3f 70b3 5a3d
00000040: 6ab0 64be 28fa 123e 623b 033e a163 cf3d
00000050: 117a 02be 5e88 c73e 7926 e13e ee6d 8e3e
00000060: 8089 3c3e 459e 943d f0e5 6a3d ee31 9839
00000070: a606 8d3f c3fe 573f 23af 04bf a683 313e
00000080: 2d9a dfbe 1524 173e 2533 153e 902a 16bc
00000090: 7ab1 973f e9c7 2b3f 6adc 42be 43ac 6f3e
000000a0: ec22 b7bf 70d5 4a3e ed8a 0ebe 1121 1b3e
000000b0: aa61 69bf 421e e2be 553e 163e 8aaa 533e
000000c0: 3117 c43e 04fb bc3e b934 b13e 189a 80bf
000000d0: a81b efbd a49f 553e dfe4 d03e 7dfa 203f
000000e0: b0e8 c23e 40bd 283d 0ad6 cabe 7418 37bf
000000f0: c2be 6a3d 7f45 bc3e 3a4a 0dbf e723 ea3e
00000100: 2c4d 943d 1a7b 363f 93c3 0abf c8aa aa3e
00000110: 88a7 dabd 23b2 fabd d5e8 243e 5408 233f
00000120: d6ae f93e f7de afbe f5be bf3d 0bde 7ebc
00000130: 5d8d aa3d 2188 adbe 577b 77be ac04 26be
00000140: 8ea2 bc3e c752 8e3e 8b54 6a3f 4e76 553f
00000150: 861d 893f 29ad 243c 1848 c73e 2374 853d
00000160: ab9a 41be d920 42be d765 5b3e 2dd2 7b3f
00000170: b841 0e3f d9b5 b63e d8f3 e03e 2be2 5d3e
00000180: a9c4 dc3e 2143 e83e 5ba4 8b3d bcd6 4d3f
00000190: 0876 6dbe 78e7 693e 1ee1 853d 3d86 cd3e
000001a0: ae1a 9abe fc1d 893d 8317 a4bd 8edb 5ebe
000001b0: 4ba6 4c3f 891e 783f 44ec f7be 64a2 ccbe
000001c0: 7329 9b3d d418 93bc 0d66 a13e 2d19 0cbf
000001d0: 40a4 193f 9436 c43e e6c5 8dbe abbe 67be
000001e0: 4340 10bd 3f80 203f 8adf 88be fae4 93be
000001f0: 309a aebd cce9 4f3f 5e25 b73e f794 5bbe
00000200: 63a0 113e 87e4 cbbb 9b0e 83be a705 9fbe
00000210: a1ea 5f3f 8ad4 7e3e 8749 f93e 030f 19bf
00000220: 0325 ddbe 9a0c 03bf f20e 153f ad78 c43d
00000230: 0762 7b3f 6127 083f 2d89 0f3e 29db 09bf
00000240: 17ef 053f 68a2 973e e209 58be 55d9 24bf
00000250: bb8c 343e f7e0 603e 97e9 07bf 12c8 0c3e
00000260: 9152 5cbf 04cf 6bbd 983f d3be f67c 4abe
00000270: 9320 4cbf cd2e c8bd 7885 523f a790 3d3f
00000280: 55e1 dbbe c9fc 12be 1f44 bc3e b28a 5f3e
00000290: 1b87 0cbf ec4b bdbd fddd 983e 87a7 113e
000002a0: 5da9 0d3d feb1 7b3e 1e41 9d3e d069 84bf
000002b0: 6e41 27be b0e8 663e 9c67 5dbc 517a 773f
000002c0: bdba 1e3f ee89 37bd a2e6 643f e505 e3be
000002d0: 3508 883e 6ac5 40be fa63 f23e 3e96 1d3f
000002e0: 8db0 813e e130 89be 487c 553e f161 563f
000002f0: 8abc 3b3e 78f6 263d fc47 723f 51c7 e8bc
00000300: 831a 723e 3fc1 4a3e 7d89 ab3e 250e 393f
00000310: 06ed 73be d055 713f a2dd 31be c157 fc3d
-0.091182224 0.017861921 0.42258745 -0.34094268 0.0059119826 0.13000607 1.0057578 0.65385866
0.10243173 0.3856759 0.7900745 -0.24156587 0.16535755 1.0827813 0.85159326 0.05339378
-0.22332922 0.1435324 0.12815621 0.101264246 -0.12741877 0.38971227 0.43974665 0.27818245
0.18411827 0.0725675 0.05734819 0.000290289 1.1017654 0.8437311 -0.5182974 0.17335376
-0.43672314 0.14759858 0.14570291 -0.009165421 1.1851037 0.67101914 -0.19029394 0.23405556
-1.4307532 0.19807982 -0.13920183 0.15149333 -0.9116465 -0.4416371 0.14672215 0.20670524
0.38298944 0.3691026 0.34610537 -1.0047026 -0.11675197 0.2086168 0.40799615 0.62882215
0.3806815 0.041196108 -0.39616424 -0.7152169 0.057310827 0.3677177 -0.55191386 0.45730516
0.07241282 0.7128159 -0.5420467 0.3333342 -0.10676485 -0.12241008 0.16104443 0.6368458
0.48766202 -0.34349796 0.09362594 -0.015555869 0.08327744 -0.3389292 -0.24168144 -0.1621272
0.3684277 0.2779753 0.9153525 0.83383644 1.0712135 0.01005105 0.3892219 0.06516292
-0.18906657 -0.18957843 0.21425568 0.9836758 0.5556903 0.35685614 0.43936038 0.21668307
0.4311879 0.45363715 0.06818458 0.80405784 -0.23189557 0.22842205 0.06537078 0.40141478
-0.3009848 0.06695172 -0.08012297 -0.21763441 0.7994124 0.9692159 -0.48422444 -0.39967644
0.07576265 -0.017956175 0.3152317 -0.54725915 0.6001625 0.3832289 -0.27690047 -0.22631328
-0.035217535 0.6269569 -0.26733047 -0.28885633 -0.08525503 0.8121612 0.35770696 -0.21443544
0.14221339 -0.006222311 -0.2559708 -0.31059 0.8746739 0.24885765 0.4868891 -0.5978853
-0.431923 -0.51191103 0.5822593 0.095933296 0.9819645 0.5318509 0.14017172 -0.53850037
0.5231795 0.29616094 -0.2109752 -0.6439412 0.1763181 0.21960817 -0.53090805 0.13748196
-0.86063486 -0.057570472 -0.41259456 -0.19774231 -0.79737204 -0.097745515 0.8223491 0.74048847
-0.42945352 -0.14354242 0.36770722 0.21830252 -0.54893655 -0.092429966 0.29856864 0.14224063
0.034585346 0.24579617 0.30713743 -1.0344791 -0.16333553 0.225497 -0.013513472 0.96671015
0.6200369 -0.044809274 0.8941442 -0.44340435 0.2656876 -0.18825307 0.473419 0.61557376
0.2533001 -0.26795104 0.20848191 0.83743197 0.1833364 0.040762395 0.9464109 -0.028415354
0.23642926 0.1980028 0.33503333 0.7228721 -0.23820886 0.94271564 -0.17369702 0.12321425

sequential_1/dense_5/MatMul f4 [8, 10]
00000000: 4142 ebbe 7942 49be 221f c93e 34d1 d03e
00000010: 9815 8bbf 88c9 6b3f f114 103f 502d 64bf
00000020: 1749 9ebe 28d8 adbd f011 273f f369 343e
00000030: 4022 51bf 4d3c 56bf 9e40 3ebf de7d 023f
00000040: f397 183d 147f 643e bfd9 243d a84a 2ebe
00000050: 740e f53e b101 123e 41b6 9e3f 5bc1 0abe
00000060: f1a1 11bf eeb7 b8bd eeaa 96bf 02e0 89bf
00000070: 14c6 813f ccdd 1e3f e646 d7bf c5b7 43bf
00000080: 9643 c0bd 782b 133e c4d2 26bf 194f 8fbe
00000090: 76ec 023f d4dd 0c3f e400 9c3e 9562 a4bd
000000a0: b675 76bf 88a5 0c3f 2adb bebe 92ce f2be
000000b0: ac2d b73e 9d58 ac3e 7d74 6dbf 9b55 01bd
000000c0: 79de 02bf e1eb 64be 3cd1 3d3f 9914 85bf
000000d0: 6a37 38bf 2e2f b63e a7e1 353f da56 10bf
000000e0: 12e9 debe 8adb 6dbf 8cfc 66bf 52b4 2a3f
000000f0: 843d 1e3e 2a2a 90be 302b 0dbf 60ec 9a3e
00000100: 3a30 7a3e 5775 5ebf e946 423d 019d 6e3e
00000110: c647 19bc 3d04 87bf 1cd8 ab3e a556 48be
00000120: f1d1 79bf 54f6 85be bb47 143f 3879 d4be
00000130: 882d b23e ce81 1bbf 0c9c 353e b14b 8ebf
-0.45948985 -0.19654264 0.39281565 0.4078461 -1.0865965 0.9210439 0.56281954 -0.8913164
-0.30915138 -0.08488494 0.65261745 0.17618541 -0.81692886 -0.8368576 -0.7431735 0.5097331
0.037254285 0.22314101 0.04024672 -0.17020667 0.4786259 0.14258458 1.239937 -0.13550322
-0.5688773 -0.09019457 -1.1770914 -1.0771487 1.0138574 0.62057185 -1.6818511 -0.76452285
-0.09387891 0.14372051 -0.6516535 -0.27990034 0.5114206 0.5502598 0.3046943 -0.080266155
-0.9627336 0.5494008 -0.37276584 -0.47423226 0.35777032 0.33661357 -0.9275587 -0.03157578
-0.51120716 -0.22355606 0.7414739 -1.0396911 -0.71959555 0.3558287 0.71047443 -0.56382525
-0.43537194 -0.92913115 -0.90229106 0.66681397 0.15453154 -0.2815717 -0.55144024 0.30258465
0.2443246 -0.86897796 0.047430906 0.2330208 -0.009355491 -1.0548168 0.33563316 -0.19564302
-0.9758597 -0.26164496 0.5792195 -0.41498733 0.34800363 -0.6074494 0.17735308 -1.1116849
